…
        "generated_image = generator(noise, training=False)\r\n",
        "\r\n",
        "plt.imshow(generated_image[0, :, :, 0], cmap='gray')\r\n"
      ],
      "execution_count": 10,
      "outputs": [
        {
          "output_type": "stream",
          "text": [
            "Model: \"sequential\"\n",
            "_________________________________________________________________\n",
            "Layer (type)                 Output Shape              Param #   \n",
            "=================================================================\n",
            "dense (Dense)                (None, 401408)            40140800  \n",
            "_________________________________________________________________\n",
            "batch_normalization (BatchNo (None, 401408)            1605632   \n",
            "_________________________________________________________________\n",
            "leaky_re_lu (LeakyReLU)      (None, 401408)            0         \n",
            "_________________________________________________________________\n",
            "reshape (Reshape)            (None, 28, 28, 512)       0         \n",
            "_________________________________________________________________\n",
            "conv2d_transpose (Conv2DTran (None, 28, 28, 256)       3276800   \n",
            "_________________________________________________________________\n",
            "batch_normalization_1 (Batch (None, 28, 28, 256)       1024      \n",
            "_________________________________________________________________\n",
            "leaky_re_lu_1 (LeakyReLU)    (None, 28, 28, 256)       0         \n",
            "_________________________________________________________________\n",
            "conv2d_transpose_1 (Conv2DTr (None, 56, 56, 128)       819200    \n",
            "_________________________________________________________________\n",
            "batch_normalization_2 (Batch (None, 56, 56, 128)       512       \n",
            "_________________________________________________________________\n",
            "leaky_re_lu_2 (LeakyReLU)    (None, 56, 56, 128)       0         \n",
            "_________________________________________________________________\n",
            "conv2d_transpose_2 (Conv2DTr (None, 112, 112, 64)      204800    \n",
            "_________________________________________________________________\n",
            "batch_normalization_3 (Batch (None, 112, 112, 64)      256       \n",
            "_________________________________________________________________\n",
            "leaky_re_lu_3 (LeakyReLU)    (None, 112, 112, 64)      0         \n",
            "_________________________________________________________________\n",
            "conv2d_transpose_3 (Conv2DTr (None, 224, 224, 3)       4800      \n",
            "=================================================================\n",
            "Total params: 46,053,824\n",
            "Trainable params: 45,250,112\n",
            "Non-trainable params: 803,712\n",
            "_________________________________________________________________\n"
          ],
          "name": "stdout"
        },
        {
          "output_type": "execute_result",
…
